…
plt.figure(figsize=(10,6))
sns.heatmap(confusion_matrix(y_test,classes_x))
iii).Make Prediction

my_num = x_test[1]
classes_x
array([7, 2, 1, ..., 4, 5, 6])
plt.imshow(my_num.reshape(28,28))

(iv).Save the Model

from tensorflow.keras.models import load_model

model.save('CNN.h5')
print('Model Saved!')
 
savedModel=load_model('CNN.h5')
savedModel.summary()
Model Saved!
Model: "sequential"
_________________________________________________________________
 Layer (type)                Output Shape              Param #   
=================================================================
 conv2d (Conv2D)             (None, 25, 25, 32)        544       
                                                                 
 max_pooling2d (MaxPooling2D  (None, 12, 12, 32)       0         
 )                                                               
                                                                 
 flatten (Flatten)           (None, 4608)              0         
                                                                 
 dense (Dense)               (None, 128)               589952    
                                                                 
 dense_1 (Dense)             (None, 10)                1290      
                                                                 
=================================================================
Total params: 591,786
Trainable params: 591,786iii).Make Prediction

my_num = x_test[1]
classes_x
array([7, 2, 1, ..., 4, 5, 6])
plt.imshow(my_num.reshape(28,28))

(iv).Save the Model

from tensorflow.keras.models import load_model

model.save('CNN.h5')
print('Model Saved!')
 
savedModel=load_model('CNN.h5')
savedModel.summary()
Model Saved!
Model: "sequential"
_________________________________________________________________
 Layer (type)                Output Shape              Param #   
=================================================================
 conv2d (Conv2D)             (None, 25, 25, 32)        544       
                                                                 
 max_pooling2d (MaxPooling2D  (None, 12, 12, 32)       0         
 )                                                               
                                                                 
 flatten (Flatten)           (None, 4608)              0         
                                                                 
 dense (Dense)               (None, 128)               589952    
                                                                 
 dense_1 (Dense)             (None, 10)                1290      
                                                                 
=================================================================
Total params: 591,786
Trainable params: 591,786iii).Make Prediction

my_num = x_test[1]
classes_x
array([7, 2, 1, ..., 4, 5, 6])
plt.imshow(my_num.reshape(28,28))

(iv).Save the Model

from tensorflow.keras.models import load_model

model.save('CNN.h5')
print('Model Saved!')
 
savedModel=load_model('CNN.h5')
savedModel.summary()
Model Saved!
Model: "sequential"
_________________________________________________________________
 Layer (type)                Output Shape              Param #   
=================================================================
 conv2d (Conv2D)             (None, 25, 25, 32)        544       
                                                                 
 max_pooling2d (MaxPooling2D  (None, 12, 12, 32)       0         
 )                                                               
                                                                 
 flatten (Flatten)           (None, 4608)              0         
                                                                 
 dense (Dense)               (None, 128)               589952    
                                                                 
 dense_1 (Dense)             (None, 10)                1290      
                                                                 
=================================================================
Total params: 591,786
Trainable params: 591,786iii).Make Prediction

my_num = x_test[1]
classes_x
array([7, 2, 1, ..., 4, 5, 6])
plt.imshow(my_num.reshape(28,28))

(iv).Save the Model

from tensorflow.keras.models import load_model

model.save('CNN.h5')
print('Model Saved!')
 
savedModel=load_model('CNN.h5')
savedModel.summary()
Model Saved!
Model: "sequential"
_________________________________________________________________
 Layer (type)                Output Shape              Param #   
=================================================================
 conv2d (Conv2D)             (None, 25, 25, 32)        544       
                                                                 
 max_pooling2d (MaxPooling2D  (None, 12, 12, 32)       0         
 )                                                               
                                                                 
 flatten (Flatten)           (None, 4608)              0         
                                                                 
 dense (Dense)               (None, 128)               589952    
                                                                 
 dense_1 (Dense)             (None, 10)                1290      
                                                                 
=================================================================
Total params: 591,786
Trainable params: 591,786iii).Make Prediction

my_num = x_test[1]
classes_x
array([7, 2, 1, ..., 4, 5, 6])
plt.imshow(my_num.reshape(28,28))

(iv).Save the Model

from tensorflow.keras.models import load_model

model.save('CNN.h5')
print('Model Saved!')
 
savedModel=load_model('CNN.h5')
savedModel.summary()
Model Saved!
Model: "sequential"
_________________________________________________________________
 Layer (type)                Output Shape              Param #   
=================================================================
 conv2d (Conv2D)             (None, 25, 25, 32)        544       
                                                                 
 max_pooling2d (MaxPooling2D  (None, 12, 12, 32)       0         
 )                                                               
                                                                 
 flatten (Flatten)           (None, 4608)              0         
                                                                 
 dense (Dense)               (None, 128)               589952    
                                                                 
 dense_1 (Dense)             (None, 10)                1290      
                                                                 
=================================================================
Total params: 591,786
Trainable params: 591,786iii).Make Prediction

my_num = x_test[1]
classes_x
array([7, 2, 1, ..., 4, 5, 6])
plt.imshow(my_num.reshape(28,28))

(iv).Save the Model

from tensorflow.keras.models import load_model

model.save('CNN.h5')
print('Model Saved!')
 
savedModel=load_model('CNN.h5')
savedModel.summary()
Model Saved!
Model: "sequential"
_________________________________________________________________
 Layer (type)                Output Shape              Param #   
=================================================================
 conv2d (Conv2D)             (None, 25, 25, 32)        544       
                                                                 
 max_pooling2d (MaxPooling2D  (None, 12, 12, 32)       0         
 )                                                               
                                                                 
 flatten (Flatten)           (None, 4608)              0         
                                                                 
 dense (Dense)               (None, 128)               589952    
                                                                 
 dense_1 (Dense)             (None, 10)                1290      
                                                                 
=================================================================
Total params: 591,786
Trainable params: 591,786iii).Make Prediction

my_num = x_test[1]
classes_x
array([7, 2, 1, ..., 4, 5, 6])
plt.imshow(my_num.reshape(28,28))

(iv).Save the Model

from tensorflow.keras.models import load_model

model.save('CNN.h5')
print('Model Saved!')
 
savedModel=load_model('CNN.h5')
savedModel.summary()
Model Saved!
Model: "sequential"
_________________________________________________________________
 Layer (type)                Output Shape              Param #   
=================================================================
 conv2d (Conv2D)             (None, 25, 25, 32)        544       
                                                                 
 max_pooling2d (MaxPooling2D  (None, 12, 12, 32)       0         
 )                                                               
                                                                 
 flatten (Flatten)           (None, 4608)              0         
                                                                 
 dense (Dense)               (None, 128)               589952    
                                                                 
 dense_1 (Dense)             (None, 10)                1290      
                                                                 
=================================================================
Total params: 591,786
Trainable params: 591,786iii).Make Prediction

my_num = x_test[1]
classes_x
array([7, 2, 1, ..., 4, 5, 6])
plt.imshow(my_num.reshape(28,28))

(iv).Save the Model

from tensorflow.keras.models import load_model

model.save('CNN.h5')
print('Model Saved!')
 
savedModel=load_model('CNN.h5')
savedModel.summary()
Model Saved!
Model: "sequential"
_________________________________________________________________
 Layer (type)                Output Shape              Param #   
=================================================================
 conv2d (Conv2D)             (None, 25, 25, 32)        544       
                                                                 
 max_pooling2d (MaxPooling2D  (None, 12, 12, 32)       0         
 )                                                               
                                                                 
 flatten (Flatten)           (None, 4608)              0         
                                                                 
 dense (Dense)               (None, 128)               589952    
                                                                 
 dense_1 (Dense)             (None, 10)                1290      
                                                                 
=================================================================
Total params: 591,786
Trainable params: 591,786
